CNN_model.pth (torch, 315032 bytes, 8 tensors)

conv1.weight f4 [12, 3, 3, 3]
000000 96 40 9a be b3 93 09 3b dd 7a 9a 3d 11 8c 19 3e
       -0.301274 0.0020992577 0.075429656 0.14994837
000010 26 cd 45 3e 64 82 5b 3e 83 01 3e bd 2d f0 69 3e
       0.19316539 0.21436459 -0.04638816 0.22845526
000020 73 34 c5 3d 9a 75 8a 3b 35 c7 48 bd 33 98 83 3d
       0.096291445 0.004225445 -0.049018104 0.06425514
000030 30 9d 79 bd ce 56 c6 bd 5a bc fa 3b d4 49 21 bd
       -0.06094092 -0.096845254 0.007651848 -0.03937705
000040 9b 3d 14 3e 3e 04 30 3e 7e 2e 89 bd 27 74 58 be
       0.14476626 0.17189118 -0.06698321 -0.21138059
000050 2a b5 15 3e a2 80 8f bd 91 50 05 bd cd 65 5e bd
       0.1461989 -0.07006957 -0.032547537 -0.054296304
000060 a9 8c 32 3e 59 a4 59 3e 5f a8 9c 3d ed e9 e5 bd
       0.1743647 0.212541 0.07649302 -0.112262584
000070 7b 01 0b 3e 48 b2 26 be 18 06 00 3e c4 57 66 bd
       0.13574784 -0.16278946 0.12502325 -0.056236044
000080 f3 88 0c be bc fe 17 3e e2 53 3c 3e 52 f9 c3 bd
       -0.13724117 0.14843267 0.18391374 -0.095690385
000090 39 5f 28 3e d3 de 76 3e ff 9a 08 3e f7 5a 69 3e
       0.16442575 0.24108438 0.13340376 0.22788607
0000a0 f2 c9 62 3e 98 98 20 3e 2b 73 12 3e 44 02 2b be
       0.22147349 0.1568321 0.14301746 -0.16700083
0000b0 7e 63 13 bd 49 41 7d 3e 18 b4 ab 3d 81 e3 f3 bc
       -0.035983555 0.24731936 0.083839595 -0.029771568
0000c0 4c a2 a9 bd 63 f5 cb bd 29 d9 07 bd 1b a8 cf bc
       -0.08282909 -0.09958913 -0.033166084 -0.025348714
0000d0 19 b7 cd bb 38 25 91 bd 3b 76 48 3e 93 a9 ca bd
       -0.0062779305 -0.07087177 0.19576351 -0.09895625
0000e0 9a 11 82 be 54 94 2b 3e 36 54 20 3c 68 30 fb bd
       -0.25404054 0.16755801 0.009785702 -0.12265092
0000f0 9d f4 58 3e d2 fa 19 3e 50 4b 26 bd af d4 d1 3d
       0.21187063 0.15037087 -0.040599167 0.10245644
000100 3d 45 50 be a7 37 92 be dc f2 2b 3c 2a 22 d6 bd
       -0.20338912 -0.28558084 0.010494914 -0.10455735
000110 f5 f7 35 3d bf 13 3e 3e c2 7e 06 be 25 da 21 3e
       0.044425923 0.1856222 -0.13134292 0.15805872
000120 29 b8 0d 3e 08 05 3d be 5c 48 6e be 35 8f 90 bd
       0.13839783 -0.1845895 -0.2326979 -0.070585646
000130 96 f3 59 bd e4 5b 3e 3d 0b 22 89 3e 43 23 38 3e
       -0.053210817 0.046474352 0.26783785 0.17982201
000140 7e 8e be bd 2e 58 c0 bc a7 cb 97 3e ea cc d9 3d
       -0.09304522 -0.023479547 0.29647562 0.106347874
000150 59 f5 01 3d 55 30 28 be 2c b7 6c 3e 45 ba 85 be
       0.031728122 -0.16424687 0.2311675 -0.26118675
000160 a8 65 19 be fc f2 54 bd 81 67 7f 3d d3 14 64 3e
       -0.14980185 -0.05198954 0.06235457 0.22273569
000170 d3 e9 c1 3e 0f aa 0e be ba 2b 32 bd dc d2 27 3d
       0.37873706 -0.1393206 -0.043498732 0.040972576
000180 78 37 13 be ae cc b0 3d 59 30 68 3d 88 97 32 be
       -0.14376628 0.086327896 0.056686733 -0.17440617
000190 16 b5 69 3e ab c5 8f 3e 98 ea 90 be 92 bf fb 3d
       0.22822985 0.28080496 -0.2830398 0.122923985
0001a0 de f8 6c bd f1 4d 8b be 85 17 1c be d1 b5 da bd
       -0.057854526 -0.27207902 -0.15243347 -0.1067921
0001b0 73 00 91 be 46 fe 9e 3d fb b4 af bc 4c f8 90 3d
       -0.28320655 0.077633426 -0.021448603 0.07078609
0001c0 b7 40 15 be f5 8e 4e 3e f8 34 8c be 02 af c0 bd
       -0.14575468 0.20171721 -0.27384162 -0.0940838
0001d0 d9 d3 8b 3d c2 7d 1d be 6d 3a 3b 3e 47 86 88 3d
       0.06827516 -0.15380004 0.18284006 0.06666236
0001e0 33 cb 96 be 46 80 12 3e e6 a5 32 3e f1 f7 5d be
       -0.29451904 0.14306745 0.17446098 -0.21676613
0001f0 3e 45 19 3e e1 56 4b 3e 00 89 88 be 3e bf 20 be
       0.1496782 0.1985736 -0.26667023 -0.15697953
000200 88 c8 10 bd d1 ca 77 be 48 5d d3 3b c4 e0 98 3e
       -0.03534749 -0.24198462 0.006450329 0.29858983
000210 e8 3f 9b bb d1 31 e2 bd f7 5f fd 3d 5c 23 3a 3e
       -0.004737843 -0.11044658 0.123718195 0.18177551
000220 5a 52 f7 bc d9 86 85 bd d5 e5 a7 3b 94 46 92 3e
       -0.030190635 -0.06519861 0.0051238337 0.28569472
000230 02 f9 4f 3d 9c b3 34 3e e4 f2 d8 3d 6f 72 01 be
       0.05077458 0.1764664 0.10593203 -0.12641309
000240 87 c4 ae 3d dd eb 46 bc f7 eb d8 bc bb 58 dc 3c
       0.08533578 -0.012141195 -0.026479704 0.026897779
000250 cf 65 46 3e fe 32 39 3e 90 38 86 bc df 15 85 3e
       0.19374774 0.18085858 -0.016384393 0.2599325
000260 7e 2c bd bc 86 0f 15 3e 13 91 13 3e 40 5d 5e be
       -0.023092505 0.14556703 0.1441081 -0.2171526
000270 89 ee a6 3d d0 ea 81 3e 97 fd 97 bd 13 ae 6f 3e
       0.08150966 0.2537446 -0.07421415 0.23406248
000280 38 9f 7b 3e b0 b4 7a be 03 2a 0e be 09 8b 94 3d
       0.24572456 -0.2448299 -0.13883214 0.07253081
000290 02 24 28 be eb 63 13 3e a0 fc 6f bd 17 45 1b be
       -0.16419986 0.14393584 -0.05859053 -0.15163074
0002a0 16 5b 8d 3d f2 34 fa 3d 11 cc 1c be 48 35 14 3e
       0.06902139 0.1221713 -0.1531222 0.1447345
0002b0 68 97 03 be 20 6e a6 bd 1e 2b 3b be 57 da e9 bd
       -0.12850726 -0.081264734 -0.18278167 -0.11418598
0002c0 a4 1b de 3d 9d 24 10 be d6 fa 4c be 46 3d 40 be
       0.10845116 -0.14076467 -0.20017561 -0.18773374
0002d0 a6 a5 ff 3d 1d 09 1a 3e ab 83 44 3e 45 64 48 be
       0.12482767 0.15042539 0.19190852 -0.195695
0002e0 b9 b1 11 be 87 4f 60 bd 59 ba 07 be 68 ae ff bd
       -0.14227952 -0.054763343 -0.1325468 -0.12484437
0002f0 02 62 1c 3e f4 9f 12 3e 04 dd 58 3e 0d 88 95 bd
       0.15271762 0.1431883 0.21178061 -0.0730134
000300 8a f1 62 3e 92 b8 99 bc 8e 67 aa 3d 55 7d 97 bb
       0.22162452 -0.018764768 0.08320533 -0.004623095
000310 06 b7 65 3d 1e fe cb bc a5 c3 75 3c fa 52 30 3e
       0.056082748 -0.024901446 0.015000259 0.17219153
000320 11 35 3a 3e 54 d8 df bc 9d 52 56 3e cb 70 82 bd
       0.18184306 -0.027324833 0.20929952 -0.0636917
000330 16 3a ed 3d c6 b3 d9 3c 19 93 64 3c 30 bb bf bd
       0.11583345 0.02657498 0.013951086 -0.09361875
000340 1c 85 9d 3d cd 51 50 3c 2b 51 aa 3d cb bb 1f bd
       0.07691404 0.012714815 0.08316263 -0.038997453
000350 78 de 4a 3e 07 ec 39 bd 67 76 fd bc 75 55 62 3d
       0.19811428 -0.04539111 -0.030940248 0.05525728
000360 8d 07 d3 bd f7 5a 1f 3e bb 98 34 3c 4f 3b 20 bd
       -0.103041746 0.15562044 0.011022742 -0.03911906
000370 5b 65 26 be 88 87 89 be a7 eb 3e 3e d0 f8 a9 bd
       -0.16249602 -0.26861215 0.18644582 -0.0829941
000380 9e 18 73 be 8a 3e ae 3c 97 38 15 bd 7a 4a 51 3d
       -0.2373986 0.021270055 -0.03643092 0.051096417
000390 4d 33 8f 3e 8f 57 e3 bd 44 79 11 bd 34 26 6a 3e
       0.27968827 -0.11100685 -0.03551604 0.22866136
0003a0 d1 a9 6e 3d ed 72 54 be 0c ee 18 3d e4 93 31 be
       0.05826742 -0.20746966 0.037336394 -0.17341572
0003b0 89 41 f0 bd 11 b0 82 3e ba 19 9d bd 33 b9 5d be
       -0.1173125 0.25524953 -0.076709226 -0.21652679
0003c0 a8 bf d4 3d 98 d9 36 be 36 7e 51 3c dc dd 31 3c
       0.10388118 -0.17856443 0.012786439 0.010856118
0003d0 71 c6 1d be 27 40 91 bc 42 8d 93 bd 6d 19 4b bd
       -0.1540773 -0.017730786 -0.07204677 -0.049584795
0003e0 b6 51 e6 bd e7 25 5b be 5e d5 c2 3d ac c8 53 3d
       -0.11246054 -0.21401177 0.09513353 0.051705047
0003f0 30 5d 17 3b 2f a4 43 be a2 2d 2a be d9 e5 a7 bd
       0.0023096316 -0.191056 -0.1661897 -0.08198137

conv1.bias f4 [12]
000000 96 cd 8f be 84 74 96 be 74 c0 85 3a b8 c9 9e 3d
       -0.28086537 -0.2938577 0.001020445 0.077533185
000010 94 2f 2d 3e 70 7d 77 bc c1 c7 85 3e cc 5f af be
       0.16912681 -0.01510559 0.26128963 -0.34252775
000020 4c fb 0e 3c b2 ab 09 3e 99 ba d4 3d 9c 59 0c be
       0.008726906 0.13444403 0.10387153 -0.13706058

conv2.weight f4 [12, 12, 3, 3]
000000 a2 af ad 3d 10 ce 32 bd a3 f6 d8 ba 31 d5 15 bd
       0.08480765 -0.043653548 -0.0016552996 -0.03658027
000010 90 b5 15 3d a2 9a a2 bd 2c de 00 bd ef 7b 92 3d
       0.036550105 -0.0793965 -0.03146188 0.07152545
000020 a7 03 7a bd 19 29 58 3b 17 c1 b5 bd 2c dd 1f 3d
       -0.06103864 0.003298348 -0.088747196 0.039029285
000030 08 be c4 bd a3 9b 30 bd 71 fc 80 3c 04 f2 c2 bc
       -0.09606558 -0.043117177 0.015745373 -0.023797043
000040 15 86 23 bd c8 49 53 3c f4 67 58 bd 45 98 a0 bd
       -0.039922792 0.012896009 -0.052833512 -0.07841543
000050 1b 9f 95 bd b5 7b 13 3d 1e ed fd bc 8b 0d 9e 3c
       -0.073057376 0.036006648 -0.030996855 0.019293567
000060 69 0e df 3c cf 9d 83 bd 9a 22 a7 bd 25 7c 27 3c
       0.027228551 -0.06426584 -0.081608966 0.010222469
000070 da 83 f5 bc 10 47 bf bd 7e 59 be bc 15 fa 18 bd
       -0.029970098 -0.09339726 -0.023236033 -0.03734787
000080 2f b6 84 bd c3 ea 2b bd b1 b6 0e bd 85 ce b8 bd
       -0.06480061 -0.041971933 -0.034842197 -0.090237655
000090 5b 17 94 bd 99 bd 4c bc 61 22 4e bd 7a 3b 8b bd
       -0.07231017 -0.0124963755 -0.050325755 -0.06798454
0000a0 59 ee 82 3d 8a a1 c3 bd 79 ef 59 bd ac a2 78 bc
       0.063931175 -0.095522955 -0.053206895 -0.015175503
0000b0 d7 5f c7 bd b8 f9 e3 bd 61 42 2b bd 1c 53 99 bd
       -0.09735077 -0.111316144 -0.04181135 -0.07486555
0000c0 9c 9f 8e 3d 7c 61 77 bd fb 53 b0 bd f2 45 7e bd
       0.06964037 -0.060395703 -0.08609768 -0.062078424
0000d0 68 bb a3 3a d8 af 87 bd 4a c2 92 3c 17 24 e2 3c
       0.0012491765 -0.066253364 0.01791491 0.0276051
0000e0 9d ab 32 bd 53 cc d6 bc df 37 c0 3b 0a c2 b5 3c
       -0.043620694 -0.026220476 0.0058660354 0.022187252
0000f0 fc 92 4d 3d 17 ca 81 3c 25 52 a9 3d 5c 5f 41 bd
       0.050189003 0.015843434 0.08267621 -0.047210082
000100 a6 61 9e bc f0 74 a7 bd 27 f7 d1 bc 1f 7f 9e 3d
       -0.019333672 -0.08176601 -0.025630547 0.0773909
000110 e6 08 fd 3c d2 1b 81 3d 73 b3 ab bd aa f3 c4 3c
       0.030888032 0.063041344 -0.083838366 0.02404197
000120 34 57 ef bd 4b 42 40 bd 5a 38 8d 3c 06 53 a2 3c
       -0.116865546 -0.046938222 0.017238785 0.01981498
000130 4a ba 1a bc 29 be 72 3c 61 fc a3 bd fd e7 2f bd
       -0.009443829 0.0148158455 -0.08007122 -0.04294585
000140 7a ad 9d bd 68 75 ac bd a8 f0 e5 bd 16 ef b2 3d
       -0.07699104 -0.08420831 -0.11227542 0.08737008
000150 ea a8 31 3c 36 0d 67 bd 7a 7b 55 bd 9d 41 2b bd
       0.010843495 -0.056409083 -0.05211971 -0.04181062
000160 a2 4d 29 bd 4d 11 59 3b 2f 37 fc 3b a9 c2 ab bd
       -0.041333802 0.0033121884 0.007697008 -0.08386738
000170 a5 0a 51 3d fa 63 9e 3b 1f 8f 90 bd ac 6a 02 bd
       0.051035542 0.0048336955 -0.07058548 -0.03184001
000180 2b c4 49 3d 37 43 50 bd df 23 82 3c e2 bc d7 bc
       0.049259346 -0.05084535 0.015886245 -0.026335184
000190 50 d9 a9 bd 05 76 38 bd ee d9 b7 bd 35 e2 b1 bd
       -0.08293402 -0.045034427 -0.08977114 -0.08685724
0001a0 cb dd 9f 3c a1 88 61 bd 69 87 55 bd cf 70 58 3d
       0.019514939 -0.05506194 -0.05213109 0.052841958
0001b0 92 af b5 bd 91 c4 05 3e 7c 58 e0 3d 57 f5 49 be
       -0.08871378 0.13063265 0.10954377 -0.19722496
0001c0 8f 16 b6 bd 0e ae 0f 3e c5 9b ed bd 84 41 fb bb
       -0.088910215 0.1403124 -0.11601976 -0.007667722
0001d0 22 6f d8 3d 1d f1 82 bd db 12 06 bd 88 49 aa 3d
       0.10568072 -0.06393645 -0.032732826 0.08314806
0001e0 c0 66 85 be 21 e0 67 bc 89 59 03 3d 8a 11 6e bd
       -0.26054955 -0.014152558 0.03206781 -0.058122195
0001f0 3b 7f 8a bd 85 a5 14 3e 2b 60 c1 bd 66 ab af bd
       -0.067625485 0.14516266 -0.09442171 -0.085776135
000200 76 9a 88 3d e0 c7 a4 3d 38 c6 7f bd ee a8 56 3d
       0.06670086 0.08045936 -0.062444896 0.052407198
000210 66 ea 51 3e d9 4d d5 bc d8 8f 17 3e ec 1b fe 3d
       0.20499572 -0.026038097 0.14800966 0.124076694
000220 07 b4 a1 3e 33 2f 89 3d 56 19 f3 bd 0a df 97 3e
       0.31582662 0.06698456 -0.11870067 0.29662353
000230 f6 36 40 3e 72 fb c5 be d7 ab e2 3c f1 9c a3 3d
       0.18770966 -0.386684 0.02766983 0.079889186
000240 bd 1f 0e 3c eb b5 92 3e 4e 8a 36 3d 57 9d 3c bd
       0.008674559 0.28654417 0.04456549 -0.04604849
000250 c2 90 88 3e ea 37 89 3d 40 9c d4 bc 7d 2f 3b 3e
       0.2667294 0.06700118 -0.025953412 0.18279834
000260 2f 2a 1a bb 80 cd 47 be 4e 8a 49 bc 07 ce 2c 3e
       -0.0023523679 -0.19511986 -0.012301041 0.16875468
000270 d3 85 2d be 99 4d c3 bc 32 6d 01 3e 0c 82 2b bd
       -0.16945581 -0.023840712 0.12639311 -0.04187207
000280 f8 6f 44 bd c4 79 81 3d c2 1e 46 3c 86 08 0e 3c
       -0.047958344 0.06322053 0.012092294 0.008669024
000290 f0 f2 47 be 72 a7 d6 3d 5b 02 68 bd 22 bc 51 bd
       -0.19526267 0.104811564 -0.05664287 -0.051204808
0002a0 c9 94 0e bc 3c f8 4a be 6d 9c 6a be c3 8c 50 be
       -0.008702465 -0.19821256 -0.22911234 -0.20366196
0002b0 1c 35 ed bb 8d 98 2d 3c 5a 49 8f be e1 47 0c bd
       -0.007238997 0.010595453 -0.2798565 -0.034248237
0002c0 b0 77 e1 3d 75 51 ae bd 0a bb b5 3d 1b 26 44 3d
       0.11009157 -0.085116304 0.088735655 0.047887903
0002d0 32 d3 d6 3d ef 9a 3a bc 43 e1 4a 3d cb b2 f6 3d
       0.10489501 -0.011389478 0.049531233 0.12045821
0002e0 b0 14 78 bd b5 0a 80 bd fd 29 63 3d a1 a9 a2 bc
       -0.060566604 -0.06252042 0.055459965 -0.019856276
0002f0 cd ef 0b 3d 5d 7f b8 bd 7f 70 4a 3d 3a 20 14 be
       0.03416424 -0.090086676 0.04942369 -0.14465418
000300 cb 1b df bd 86 93 9f bc 4e 31 26 be 8f 87 0a 3d
       -0.10893973 -0.019479524 -0.16229746 0.033820685
000310 6f 84 47 3d 56 0e d9 3c 53 20 e9 bc 6f 9e 59 be
       0.048710283 0.026496094 -0.028457796 -0.21251844
000320 11 17 28 3c 07 17 07 3e dc 1d 30 be ba fc 71 3c
       0.010259406 0.13192378 -0.1719889 0.014769727
000330 ad eb 02 3e 5b 4b 9e bd ed f5 14 3e d4 62 84 bd
       0.12785216 -0.07729217 0.14546938 -0.064641625
000340 78 72 85 3d 07 48 f9 3d 5e f6 4c be f5 02 54 bd
       0.06515974 0.12171941 -0.20015857 -0.051760633
000350 60 88 b3 3d b3 bf e4 bd f5 0c cb bd ff 69 86 3d
       0.08766246 -0.11169376 -0.09914581 0.06563186
000360 46 d5 d6 bc 1b aa 1a 3c aa 1c 2b bd 9d fb 51 3c
       -0.026224744 0.00943997 -0.041775383 0.012816337
000370 93 e9 06 3e f5 46 a1 3b 1c 29 19 bd 8a 82 7d bd
       0.13175039 0.004921789 -0.03739272 -0.06189207
000380 00 60 33 be e0 0d a0 3c 30 a6 11 be 8f 76 f7 bb
       -0.1751709 0.019537866 -0.14223552 -0.007551975
000390 ef 30 ae 3c f8 d6 34 bd 0f 0c 18 3e 36 0e e7 3d
       0.021263568 -0.044150323 0.1484835 0.112820074
0003a0 6f 50 11 3e 3a 09 29 3e 86 65 3b 3e 78 3b b3 3d
       0.14190839 0.16507426 0.18300447 0.08751577
0003b0 95 5d 60 3e 3e dc 1e 3e 44 5c d8 3d a8 86 63 3e
       0.21910699 0.15513703 0.10564473 0.22219336
0003c0 da 0e ed bd 21 75 50 be d8 e8 bd 3d 84 df 03 be
       -0.11575098 -0.20357181 0.09272927 -0.12878233
0003d0 b9 21 e0 bd 1d ae 90 be 58 a1 c8 bd 06 ce 06 be
       -0.10943932 -0.28257838 -0.09796399 -0.13164529
0003e0 bd ef 8c be 08 35 1b 3e 7a b9 37 3e 6d f0 5e 3d
       -0.27526656 0.15156949 0.17941847 0.054428507
0003f0 8c e9 9a 3d b2 ba ff bc 85 a8 0f 3d 30 ce f7 3d
       0.07564077 -0.031216953 0.035072822 0.12099874

conv2.bias f4 [12]
000000 70 af ef bd 48 25 63 3d da 4a 32 be df 42 0d 3c
       -0.11703384 0.055455476 -0.17411366 0.0086219
000010 ac a0 05 3e 77 7d d3 bd de 37 06 3d 80 ad b2 3d
       0.13049573 -0.10326665 0.032768123 0.08724499
000020 7d 77 18 be 32 6a d5 bd 5b 8d 49 bd 0b b1 a1 bd
       -0.14889331 -0.10420646 -0.049207073 -0.078950964

conv3.weight f4 [24, 12, 3, 3]
000000 f4 04 46 3d 0b 43 a8 3c aa ab 93 bd 77 fe 7a 3c
       0.048344567 0.020539781 -0.07210477 0.015319458
000010 73 63 aa bd 23 c6 02 bd 48 a7 87 3d cd 21 52 3d
       -0.0831975 -0.03192724 0.06623703 0.051301766
000020 55 de e9 3c 84 64 a8 bd 4b 57 0a be fc 6a 2c 3e
       0.028548399 -0.08222297 -0.13509862 0.16837686
000030 fa de fc 3d 90 83 f2 bd 83 22 da 3d 87 ca e3 3d
       0.12347217 -0.118415 0.10651114 0.111226134
000040 84 46 c9 bd ef a5 d6 3d 05 84 aa bd 8c e8 fe bd
       -0.09827903 0.10480868 -0.08325962 -0.124466985
000050 15 ae 92 bd b0 61 f3 bd dd 7b 94 be a6 87 9b 3d
       -0.0716211 -0.11883867 -0.2900075 0.07594232
000060 fc ca 14 3e d2 8b b8 bd 48 44 a9 3b 24 69 8b bd
       0.14530557 -0.090110436 0.0051656105 -0.06807163
000070 9b 0c 11 bb 80 fb 2d 3d 7f 3a d4 3d 32 4c f1 3c
       -0.0022132758 0.042476177 0.1036272 0.029455278
000080 eb 54 28 bd 43 7b 2b 3e 86 13 ed 3d 3f cd b9 bd
       -0.04109661 0.1674624 0.115759894 -0.09072351
000090 fe 4b bd 3c 51 d6 0e 3e 2c 26 32 bd 34 b3 26 3e
       0.023107525 0.13948943 -0.043493435 0.16279298
0000a0 66 50 95 3d 30 48 12 bb 9e 91 d0 3c 70 d8 7d 3d
       0.072907254 -0.002232086 0.02546006 0.06197399
0000b0 e3 7b e2 3d c4 4d 41 be 33 1c 03 be 4a e6 1c be
       0.11058786 -0.18877321 -0.12803726 -0.15322223
0000c0 55 5f 9d bd 60 9f 99 bd f5 33 22 3d 0e de f0 3d
       -0.07684199 -0.075011015 0.03960033 0.117611036
0000d0 e7 6c db 3d 08 f7 7e bc 01 25 88 be ef b5 25 be
       0.10714131 -0.0155618265 -0.26590732 -0.16182683
0000e0 fe a5 df bc fc 49 e4 bd 7b ae e4 bd 75 75 8d be
       -0.02730083 -0.11146924 -0.11166092 -0.27628675
0000f0 ae c4 6d bc 40 25 ec bb 08 ae 99 bd 19 3c b3 bd
       -0.014512224 -0.007206589 -0.07503897 -0.08751697
000100 73 bc 21 bd b1 44 6e 3c db 1e 54 3c ff a3 3e 3c
       -0.03948636 0.0145427445 0.01294681 0.011635779
000110 9f d8 33 3d fa 88 0d bb eb 5a 6b bd 9e f4 95 3d
       0.043907758 -0.0021596537 -0.057459753 0.07322048
000120 b9 d5 d2 bd 25 98 5a be 79 d1 d0 bd 3c 83 b5 3d
       -0.102946706 -0.21347101 -0.10196204 0.088629216
000130 39 3b 12 be 05 80 39 3c aa ec b6 3d f6 2c e8 bd
       -0.14280404 0.011322026 0.08931859 -0.113367006
000140 cf 8d b1 bd 75 b4 98 3d ee 6c 8e 3d e0 aa 98 3b
       -0.08669626 0.074562944 0.069543704 0.0046590418
000150 2f 6b f4 bd 71 5d 2f be 93 b0 82 bd 89 02 42 bc
       -0.11934506 -0.17125489 -0.06381335 -0.011841425
000160 a9 b7 4d be 23 4b ff bc 19 2e 37 bd 26 5a 75 be
       -0.20089592 -0.031163758 -0.044721697 -0.2396017
000170 ff 16 49 be 0c ff b7 bc 7b f1 9e bd 54 38 dc 3c
       -0.19637679 -0.022460483 -0.077609025 0.026882328
000180 8e 58 23 bc b8 f2 0f 3e 4e 9f 7a 3d 40 d8 a2 bc
       -0.009969844 0.14057434 0.06118708 -0.019878507
000190 8f 79 2c be f1 3b 5c be 75 9e 37 bc 1a db 95 bd
       -0.16843246 -0.21507241 -0.011207213 -0.07317181
0001a0 b4 94 a1 bc 3a 2d eb 3d fc e5 46 3e b3 79 50 bd
       -0.019724227 0.11483236 0.1942367 -0.05089731
0001b0 e6 d9 92 bc 0b 92 95 bd e3 c4 ab bd d8 9b ed bc
       -0.017926168 -0.07303246 -0.083871625 -0.029004976
0001c0 06 c0 52 bd 6d f5 01 bb af 64 b4 bd 3f 4c ca bc
       -0.05145266 -0.0019830123 -0.08808266 -0.02469456
0001d0 5d 1c b0 3d 76 2d 6e bd f0 f9 ef bd 9c c0 a7 3b
       0.0859916 -0.058148824 -0.11717594 0.0051193964
0001e0 6a 43 7a bd 08 86 6a bc 4f 16 d4 3b fb 0c 86 3c
       -0.061099447 -0.014314182 0.006472386 0.016363611
0001f0 b5 2a 64 3d 82 cd c9 bd 4b cb 97 bc 04 00 8f 3d
       0.05570479 -0.09853651 -0.018529555 0.06982425
000200 df 2e 17 3c 26 af 96 3d c2 3b 9c bd a7 3a f1 3b
       0.0092274835 0.07357626 -0.076285854 0.007361728
000210 80 dd 7b 3c 87 48 27 3d 3c 84 8c bd 78 a9 c9 3c
       0.015372634 0.04084065 -0.06861159 0.024616942
000220 5f b9 e0 bd 92 e5 02 be e6 54 c1 bc 6d c1 41 bd
       -0.10972857 -0.12782887 -0.023600053 -0.047303606
000230 a8 0d 36 3c e2 fe e1 3b de 4d e4 bd aa 1a 58 be
       0.011111654 0.0068968395 -0.111476645 -0.21103922
000240 97 91 dc 3c fa c2 74 3c 8a f7 45 bc 18 57 33 3d
       0.026924891 0.014939064 -0.012082944 0.04378423
000250 63 6c 68 bd b0 3f 05 ba e7 5a e8 bd 8e c6 20 3c
       -0.05674399 -0.00050830375 -0.11345463 0.009812964
000260 27 e1 7d 3d 6e d4 95 bd 4e 92 e9 bd 4d 4f dd bc
       0.0619823 -0.07315908 -0.114048585 -0.027015353
000270 0b cf e0 bd 6f 7f f2 bd b2 35 46 bd 51 26 d1 bd
       -0.1097699 -0.11840712 -0.04839105 -0.102123864
000280 8e f6 8c bc c1 66 43 bd 56 fb ed bd d7 e6 1b 3d
       -0.01720741 -0.047705416 -0.11620204 0.038061943
000290 56 17 75 3d 67 b0 00 bc 99 f7 30 3c 57 b5 8c 3d
       0.059836708 -0.007854558 0.010801219 0.06870525
0002a0 8a 22 27 3d e6 4a 3a 3d 70 4d 5d bd 24 a5 5f 3d
       0.040804423 0.045481585 -0.05402893 0.05460085
0002b0 1f c2 0b 3d 46 8e 2e 3d 8b 93 a5 3c 48 9b e6 bd
       0.034120675 0.04261615 0.020211956 -0.11260086
0002c0 1f 57 1f 3d 93 08 6a bd fa 66 d7 bc b1 d2 aa bb
       0.038901445 -0.057137083 -0.02629422 -0.0052131047
0002d0 33 2f b1 bd 2f 80 d5 bc 65 19 d9 bd 0a a5 6e 3b
       -0.08651581 -0.0260621 -0.10600547 0.003641429
0002e0 c1 e6 fb bc ca 39 86 3d fc d6 86 bb f2 71 81 bd
       -0.03074968 0.06553991 -0.0041149836 -0.063205615
0002f0 03 35 61 3d a5 69 df bc 5e c1 8f bc 84 c5 25 bd
       0.054982197 -0.027272055 -0.01754826 -0.04047157
000300 37 a0 e3 bc ef 1f c4 bd 58 34 71 bc 84 01 39 3c
       -0.027786357 -0.09576403 -0.014721952 0.011291865
000310 23 f5 dd bb a9 05 41 3d e6 5a c4 bd 83 59 01 be
       -0.0067736073 0.04712454 -0.0958765 -0.12631802
000320 0b eb 00 bc e8 19 bc bd aa 55 5e 3c 00 8d d1 bc
       -0.007868539 -0.09184629 0.013570229 -0.02557993
000330 b7 03 b3 3c 02 24 91 bc f4 6e fb bd 4c 3d d2 bd
       0.021852357 -0.017717365 -0.12277022 -0.10265598
000340 ef f1 15 3d a8 20 39 3d 50 4f 37 3d 68 25 ec bd
       0.03660768 0.04519716 0.044753373 -0.11530572
000350 05 d9 af bd c8 36 c9 bd 69 9f a9 bd c5 1c c8 bd
       -0.08586315 -0.09824902 -0.08282358 -0.09771112
000360 40 a4 87 3b 6a 4f 7b 3d 2d 6b be 3b d1 a5 ac bd
       0.004139453 0.061355032 0.005811116 -0.084300645
000370 88 8c 73 bb 47 84 44 bd 85 e4 64 3d c1 64 b7 3d
       -0.003716262 -0.047977712 0.055881996 0.08954764
000380 45 b5 24 3d 12 26 af bd c0 da 6f be e6 47 21 3e
       0.040211935 -0.08552183 -0.2342329 0.15750083
000390 36 bb d1 3d d8 98 b8 bc 46 96 9f 3d f4 04 27 bd
       0.10240786 -0.02253382 0.07792334 -0.040776208
0003a0 ba d2 6c be fe 3f 03 bd ba d6 14 bd 77 ee 19 be
       -0.23127261 -0.03204345 -0.03633759 -0.15032373
0003b0 12 cd bd 3d 2d b1 0c bd eb 71 42 3d 20 79 7c bd
       0.0926763 -0.034348655 0.047471922 -0.06163895
0003c0 30 e1 e7 bd 48 61 a0 bd d7 b0 79 3d 68 e7 7d bd
       -0.11322248 -0.07831055 0.060959663 -0.061988264
0003d0 2a 0d 21 be 08 83 06 3e cb 69 6d be 38 e6 79 3d
       -0.15727678 0.13135922 -0.23184888 0.06101057
0003e0 93 36 14 3e 08 5c 08 bd 30 2a fd bd e2 07 1e 3d
       0.14473943 -0.033290893 -0.12361562 0.038581736
0003f0 64 ed 60 bd ef 7a 04 3c bb 25 03 be 16 c8 da 3c
       -0.054913893 0.00808595 -0.12807362 0.026706737

conv3.bias f4 [24]
000000 66 16 94 3d de 06 c4 bd e6 14 91 3c 0b e6 d2 3b
       0.07230835 -0.09571622 0.01771016 0.0064361147
000010 23 cb 79 bc 05 cc 70 3c d2 5a 51 3d 6d 02 b3 bc
       -0.0152461855 0.01469708 0.051112004 -0.021851743
000020 23 e4 bb 3a d9 77 18 bc 55 90 ee bd d9 c0 a1 bd
       0.0014334958 -0.009305918 -0.11648623 -0.07898111
000030 f6 e2 b4 bc c1 8e be 3d ba 28 b0 bd 2b c1 35 3d
       -0.02208088 0.09304572 -0.08601518 0.044373672
000040 1f 10 62 bd 77 ce d3 bd f7 fd 0e bd 02 38 a3 3d
       -0.055191156 -0.103421144 -0.03491017 0.07969667
000050 a7 86 09 3e 78 28 af 3d 4f d9 89 bd 1e 58 50 3c
       0.13430272 0.08552641 -0.067309014 0.012716321

fc.weight f4 [3, 24576]
000000 ff 21 81 3c 16 b4 88 3c dc 07 50 3c d9 cb d4 3c
       0.01576328 0.016687434 0.012697186 0.025976108
000010 f1 01 f0 3c 64 b4 0e 3d 76 65 6e 3c 59 5e 00 bd
       0.0292978 0.034840003 0.014550557 -0.031339977
000020 af 95 6d bd 6a 2b 45 3c 7e 3b 8b 3c 25 ce 91 3c
       -0.058004078 0.0120342765 0.016996142 0.017798493
000030 d2 bd ca bc 89 f9 53 bd 3e 91 29 3d fe 13 b8 bc
       -0.024748717 -0.051751647 0.04139828 -0.02247047
000040 cc 4f f6 bb 05 bc 32 3d 6a e4 78 bd 47 81 a0 bd
       -0.0075168367 0.04363634 -0.060764708 -0.07837158
000050 b8 a5 2d bd c9 e0 53 3d fd 23 ff 3b e4 e0 85 3c
       -0.04239437 0.051728044 0.0077862726 0.016342588
000060 ad db f7 bc 60 6a 33 bc 8a 79 a3 bc e9 87 93 3c
       -0.030256117 -0.010950655 -0.019955415 0.018009143
000070 d2 77 1e bd 44 84 50 3d 9e ce 50 3d 6c d3 82 bd
       -0.03868849 0.05090739 0.050978296 -0.06387982
000080 29 0f 6c bd 93 74 2b 3d aa 7b b1 3d 9d b5 60 bb
       -0.057631645 0.04185922 0.08666165 -0.0034287937
000090 17 21 33 3d 8b 5a 60 bb 7f e5 e7 3c 20 f0 fa 3b
       0.04373273 -0.0034233655 0.028307674 0.0076580197
0000a0 ef f1 a8 bc da 48 c9 bd 36 9e ec bd 88 4a 22 be
       -0.020623175 -0.098283485 -0.11553614 -0.15848744
0000b0 f2 2d 9e 3c a5 08 39 be 6e 36 ca bd 30 e9 42 3d
       0.019309018 -0.18069704 -0.09873663 0.047585666
0000c0 88 e6 17 3d ef 2e 1f 3e 91 b9 68 bd 6d 37 19 be
       0.037085086 0.15545247 -0.056817595 -0.1496255
0000d0 b8 a3 13 be b1 8d 3f be db a1 37 be b0 76 6f bd
       -0.14417922 -0.18706395 -0.17932837 -0.0584628
0000e0 3c 61 7a 3d a3 0a 5a 3a 85 7c 1f bc b0 5b 8b bc
       0.061127886 0.0008317625 -0.009734278 -0.017011493
0000f0 fd e1 67 3c 95 58 b2 bb 8a ee ed bb 57 6a c3 3c
       0.014153001 -0.0054426887 -0.007261102 0.023854418
000100 13 63 d9 bb f8 2b a0 bc b7 e6 8b bd b6 c0 c2 ba
       -0.006634125 -0.019552216 -0.06831115 -0.0014858458
000110 d9 4b f1 3c 1e 3d e7 bc 70 d8 76 bd 1d 7c 9d 3d
       0.029455112 -0.028227385 -0.060265005 0.07689688
000120 83 e9 e8 bd 36 2d 51 be 55 b2 a9 bc 28 38 64 bd
       -0.11372664 -0.20427403 -0.020714918 -0.055717617
000130 71 02 76 3b 58 60 ae bc 9e 43 09 3d 1e de 81 bd
       0.0037538076 -0.021286175 0.03351175 -0.063411936
000140 8e e7 ce 3b fe af 09 3c a7 ed 2f 3c 6d 4c aa bd
       0.0063142246 0.008403776 0.010737813 -0.08315358
000150 b9 0c 9c bd c7 97 55 bd 35 39 ce bd 23 ff 64 be
       -0.07619614 -0.0521467 -0.10069505 -0.22362952
000160 aa bd 1e be 81 bc b5 bd fd 13 01 3d ad cf 13 bd
       -0.15502039 -0.08873845 0.031513203 -0.036086727
000170 66 26 71 3d 2e ed b6 bc dc 22 60 bb 1f 32 07 3b
       0.05887451 -0.022329893 -0.0034200465 0.002062924
000180 8f 6e e2 bc 87 a2 2a 3b 35 8b 51 bd 4a 4a 19 bd
       -0.02764061 0.0026036815 -0.05115815 -0.037424363
000190 d5 50 45 3a ff 98 25 3d fb 36 71 3d 45 10 2f 3d
       0.00075269985 0.04042911 0.058890324 0.042740125
0001a0 6f 30 08 bc 28 ae 00 3d 7d 40 d5 bc 87 a1 bc bd
       -0.008312329 0.03141609 -0.026031727 -0.092104964
0001b0 0a 41 ab 3c 01 7d 25 bd 75 9d 8f 3d 53 6c d5 3d
       0.020905036 -0.040402416 0.070124544 0.10421052
0001c0 48 07 e5 bd e4 ad bc bd da 77 a8 bc 82 2c 96 3d
       -0.111830294 -0.092128545 -0.020564962 0.07332708
0001d0 41 3b 5f 3d b8 ee 42 bd 38 0a a9 3c 3f 4a 35 3d
       0.05449987 -0.04759094 0.020634755 0.04426026
0001e0 a3 71 72 be 37 32 4a be 67 63 de bc d3 29 36 bd
       -0.23676161 -0.19745718 -0.027147008 -0.04447348
0001f0 7b 3b 01 3d b7 81 30 3d db ce 74 bd 60 28 3e bd
       0.031550866 0.043092456 -0.059767585 -0.046425223
000200 b9 89 95 3d 02 f3 92 3c dc d0 7a bc 09 11 04 bd
       0.07301659 0.01793814 -0.015308585 -0.03224281
000210 f7 fb 08 bd cc dc c5 3d 00 fb 34 3d 22 a9 94 3c
       -0.033443417 0.09661254 0.044184685 0.018147055
000220 9c ba b7 3d 97 e4 9a bd e1 1d f1 bc 86 7e 78 3d
       0.0897114 -0.07563131 -0.029433193 0.060667537
000230 42 37 64 3d b7 c4 1b 3d ee 31 2b bc b9 a3 a3 3d
       0.05571676 0.0380294 -0.010448916 0.07990212
000240 d5 5c 4e be ab fb 1a be e1 41 9c bc 4d f0 54 bb
       -0.201526 -0.15135066 -0.019074382 -0.0032491863
000250 c5 e8 4d bd 92 a5 9b bd 9f 10 7b bb 41 fa 3d 3e
       -0.050270814 -0.075999394 -0.0038309467 0.18552496
000260 b1 40 80 3d a6 41 f5 bd 30 7d 16 be 62 fb a2 3d
       0.06262339 -0.11975412 -0.14696193 0.07958104
000270 bc de eb bc b1 45 7e bd 12 68 53 3c 98 d4 46 bd
       -0.028792731 -0.06207818 0.01290323 -0.04854259
000280 65 09 06 3d 4f 8f 4b bd 6f c6 5a 3d 46 ae b8 3a
       0.032723803 -0.049697217 0.053411897 0.0014090023
000290 9b f3 1a bc 75 21 9b bc 06 2d cb bc 78 8c 1c 3c
       -0.009457494 -0.018936852 -0.024801742 0.009554975
0002a0 e4 ce dd 3c f0 70 ad b9 b5 03 1b bc 7d 88 1b 3d
       0.027076192 -0.00033081276 -0.009461333 0.037971962
0002b0 91 33 93 3c f6 82 d0 3b 9c c0 73 3d a2 22 9a bd
       0.017968925 0.006363268 0.05950986 -0.07526137
0002c0 41 ce 8c bd 9a 84 fe bd 5d f8 33 bd 39 4e 52 3d
       -0.06875277 -0.124276355 -0.04393803 0.05134413
0002d0 ca 34 f5 3c 64 7b 9b bd 9d d1 68 bd d8 d9 53 bc
       0.029932398 -0.07591894 -0.056840528 -0.012930356
0002e0 ec 94 77 3d d2 91 02 3d 1f a8 55 be 77 73 a0 bc
       0.060444757 0.031877346 -0.20864914 -0.019586308
0002f0 ca d9 d1 3a 60 2f 21 3d 86 7c 03 3d 87 92 8f bc
       0.0016010341 0.03935182 0.032101177 -0.017525924
000300 86 b5 11 3d 7d bc 3d bd 3e fb a2 bd e8 a8 d5 3c
       0.035573505 -0.046322335 -0.07958077 0.026081517
000310 ba dd 93 3d df fc 8a bd 06 60 cf bd 20 27 8c bd
       0.07220025 -0.067865126 -0.10125737 -0.068434
000320 2a 19 19 3c cf b9 13 3d 9b c9 0f 3e 2d 5c 4a bd
       0.0093443785 0.036065873 0.1404175 -0.049404312
000330 6e 2e 86 bd ce b8 d1 bd aa db dc 3c 28 10 16 bd
       -0.065518245 -0.10240327 0.026960213 -0.0366365
000340 b9 a7 a4 bd 92 45 f8 bd 4e 5b b7 bd 1b 9b 93 bd
       -0.08039803 -0.121226445 -0.08952962 -0.072073184
000350 89 b6 6d bd 86 08 e5 3d f2 4d 8f bd 20 57 17 3d
       -0.058035407 0.11183266 -0.06997289 0.036948323
000360 c9 4d 7a 3d 20 63 d8 3d d6 48 0b bc 00 09 0d bd
       0.061109338 0.105657816 -0.008501252 -0.03443241
000370 d7 04 5b bd f5 1b 04 bd 93 62 1b 3d 39 bc 82 bc
       -0.053471413 -0.032253224 0.037935805 -0.015958892
000380 50 2a cb 3c a2 cb 8a bd ad f4 38 bd 64 af c3 bc
       0.02480045 -0.06777121 -0.045155216 -0.023887344
000390 92 0d b7 bc 8d 06 f3 3c 30 82 96 3d 2f bf e5 3c
       -0.022345338 0.02966621 0.0734905 0.028045265
0003a0 68 87 98 3d 70 65 44 3d e0 c8 de 3b 99 f9 55 3c
       0.07447702 0.0479483 0.0067988485 0.013059997
0003b0 33 1c 10 3d 4f b2 ca 39 3e 3f e3 3d d7 a5 04 3e
       0.035183143 0.00038661293 0.11096047 0.12953888
0003c0 98 ea 17 bd e0 e6 aa bd 7a f3 45 bd c9 ed 20 3d
       -0.03708896 -0.08344817 -0.0483279 0.03928927
0003d0 12 18 ca 3d 65 97 aa 3d bf 5b 0c 3d f1 fd 99 3c
       0.09867872 0.083296575 0.034267183 0.018797847
0003e0 f4 8a b7 bb 19 fb 91 3d 75 0d be 3d a9 21 b2 3d
       -0.0056012813 0.07127971 0.092799105 0.086978264
0003f0 a2 31 4b be f7 df 43 bd 79 4b c3 3c 1f 92 f0 3b
       -0.19843152 -0.04782101 0.0238397 0.0073416377

fc.bias f4 [3]
000000 63 6d ee bc 1c 3c 13 3d 8c de 94 bc
       -0.029104894 0.035945997 -0.018172525
